…
Total evaluation: 
accuracy: 81.36%, balanced accuracy: 81.39%

Model: "4"
__________________________________________________________________________________________________
Layer (type)                    Output Shape         Param #     Connected to                     
==================================================================================================
input_1 (InputLayer)            [(20, 300, 6)]       0                                            
__________________________________________________________________________________________________
tf.math.multiply (TFOpLambda)   (20, 300, 6)         0           input_1[0][0]                    
__________________________________________________________________________________________________
conv1d (Conv1D)                 (20, 300, 32)        1376        tf.math.multiply[0][0]           
__________________________________________________________________________________________________
batch_normalization (BatchNorma (20, 300, 32)        128         conv1d[0][0]                     
__________________________________________________________________________________________________
leaky_re_lu (LeakyReLU)         (20, 300, 32)        0           batch_normalization[0][0]        
__________________________________________________________________________________________________
tf.__operators__.add (TFOpLambd (20, 300, 32)        0           leaky_re_lu[0][0]                
__________________________________________________________________________________________________
dropout_3 (Dropout)             (20, 300, 32)        0           tf.__operators__.add[0][0]       
__________________________________________________________________________________________________
dense (Dense)                   (20, 300, 96)        3168        dropout_3[0][0]                  
__________________________________________________________________________________________________
tf.reshape (TFOpLambda)         (20, 300, 3, 4, 8)   0           dense[0][0]                      
__________________________________________________________________________________________________
tf.compat.v1.transpose (TFOpLam (3, 20, 4, 300, 8)   0           tf.reshape[0][0]                 
__________________________________________________________________________________________________
tf.__operators__.getitem_1 (Sli (20, 4, 300, 8)      0           tf.compat.v1.transpose[0][0]     
__________________________________________________________________________________________________
tf.__operators__.getitem_2 (Sli (20, 4, 300, 8)      0           tf.compat.v1.transpose[0][0]     
__________________________________________________________________________________________________
tf.linalg.matmul (TFOpLambda)   (20, 4, 300, 300)    0           tf.__operators__.getitem_1[0][0] 
                                                                 tf.__operators__.getitem_2[0][0] 
__________________________________________________________________________________________________
tf.math.multiply_1 (TFOpLambda) (20, 4, 300, 300)    0           tf.linalg.matmul[0][0]           
__________________________________________________________________________________________________
tf.nn.softmax (TFOpLambda)      (20, 4, 300, 300)    0           tf.math.multiply_1[0][0]         
__________________________________________________________________________________________________
tf.__operators__.getitem_3 (Sli (20, 4, 300, 8)      0           tf.compat.v1.transpose[0][0]     
__________________________________________________________________________________________________
tf.linalg.matmul_1 (TFOpLambda) (20, 4, 300, 8)      0           tf.nn.softmax[0][0]              
                                                                 tf.__operators__.getitem_3[0][0] 
__________________________________________________________________________________________________
tf.compat.v1.transpose_1 (TFOpL (20, 300, 4, 8)      0           tf.linalg.matmul_1[0][0]         
__________________________________________________________________________________________________
tf.reshape_1 (TFOpLambda)       (20, 300, 32)        0           tf.compat.v1.transpose_1[0][0]   
__________________________________________________________________________________________________
dense_1 (Dense)                 (20, 300, 32)        1056        tf.reshape_1[0][0]               
__________________________________________________________________________________________________
tf.__operators__.getitem_4 (Sli (300, 32)            0           dense_1[0][0]                    
__________________________________________________________________________________________________
dropout (Dropout)               (300, 32)            0           tf.__operators__.getitem_4[0][0] 
__________________________________________________________________________________________________
tf.__operators__.add_1 (TFOpLam (20, 300, 32)        0           dropout_3[0][0]                  
                                                                 dropout[0][0]                    
__________________________________________________________________________________________________
layer_normalization (LayerNorma (20, 300, 32)        64          tf.__operators__.add_1[0][0]     
__________________________________________________________________________________________________
dense_2 (Dense)                 (20, 300, 128)       4224        layer_normalization[0][0]        
__________________________________________________________________________________________________
activation (Activation)         (20, 300, 128)       0           dense_2[0][0]                    
__________________________________________________________________________________________________
dense_3 (Dense)                 (20, 300, 32)        4128        activation[0][0]                 
__________________________________________________________________________________________________
dropout_2 (Dropout)             (20, 300, 32)        0           dense_3[0][0]                    
__________________________________________________________________________________________________
dropout_1 (Dropout)             (20, 300, 32)        0           dropout_2[0][0]                  
__________________________________________________________________________________________________
tf.__operators__.add_2 (TFOpLam (20, 300, 32)        0           layer_normalization[0][0]        
                                                                 dropout_1[0][0]                  
__________________________________________________________________________________________________
layer_normalization_1 (LayerNor (20, 300, 32)        64          tf.__operators__.add_2[0][0]     
__________________________________________________________________________________________________
global_average_pooling1d (Globa (20, 32)             0           layer_normalization_1[0][0]      
__________________________________________________________________________________________________
dropout_4 (Dropout)             (20, 32)             0           global_average_pooling1d[0][0]   
__________________________________________________________________________________________________
dense_4 (Dense)                 (20, 12)             396         dropout_4[0][0]                  
==================================================================================================
Total params: 14,604
Trainable params: 14,540
Non-trainable params: 64
__________________________________________________________________________________________________
Transformer_Encoder 
WARNING:tensorflow:Unresolved object in checkpoint: (root).optimizer
…
